--- C:\Users\jhonf\Documents\Estudio\Tesis\Keras Apps Arch\mobilenet\mobilenet_no_top_sumary.js	Sat Oct  5 11:18:26 2019
+++ C:\Users\jhonf\Documents\Estudio\Tesis\Keras Apps Arch\mobilenet\mobilenet_top_sumary.js	Sat Oct  5 11:22:40 2019
@@ -2,7 +2,7 @@
 _________________________________________________________________
 Layer (type)                 Output Shape              Param #   
 =================================================================
-input_2 (InputLayer)         (None, 224, 224, 3)       0         
+input_1 (InputLayer)         (None, 224, 224, 3)       0         
 _________________________________________________________________
 conv1_pad (ZeroPadding2D)    (None, 225, 225, 3)       0         
 _________________________________________________________________
@@ -175,8 +175,20 @@
 conv_pw_13_bn (BatchNormaliz (None, 7, 7, 1024)        4096      
 _________________________________________________________________
 conv_pw_13_relu (ReLU)       (None, 7, 7, 1024)        0         
+_________________________________________________________________
+global_average_pooling2d_1 ( (None, 1024)              0         
+_________________________________________________________________
+reshape_1 (Reshape)          (None, 1, 1, 1024)        0         
+_________________________________________________________________
+dropout (Dropout)            (None, 1, 1, 1024)        0         
+_________________________________________________________________
+conv_preds (Conv2D)          (None, 1, 1, 1000)        1025000   
+_________________________________________________________________
+reshape_2 (Reshape)          (None, 1000)              0         
+_________________________________________________________________
+act_softmax (Activation)     (None, 1000)              0         
 =================================================================
-Total params: 3,228,864
-Trainable params: 3,206,976
+Total params: 4,253,864
+Trainable params: 4,231,976
 Non-trainable params: 21,888
 _________________________________________________________________
\ No newline at end of file
