--- C:\Users\jhonf\Documents\Estudio\Tesis\Keras Apps Arch\dense121\dense121_no_top_summary.js	Sat Oct  5 20:02:59 2019
+++ C:\Users\jhonf\Documents\Estudio\Tesis\Keras Apps Arch\dense121\dense121_top_summary.js	Sat Oct  5 19:58:27 2019
@@ -2,19 +2,19 @@
 __________________________________________________________________________________________________
 Layer (type)                    Output Shape         Param #     Connected to                     
 ==================================================================================================
-input_2 (InputLayer)            (None, 224, 224, 3)  0                                            
-__________________________________________________________________________________________________
-zero_padding2d_3 (ZeroPadding2D (None, 230, 230, 3)  0           input_2[0][0]                    
-__________________________________________________________________________________________________
-conv1/conv (Conv2D)             (None, 112, 112, 64) 9408        zero_padding2d_3[0][0]           
+input_1 (InputLayer)            (None, 224, 224, 3)  0                                            
+__________________________________________________________________________________________________
+zero_padding2d_1 (ZeroPadding2D (None, 230, 230, 3)  0           input_1[0][0]                    
+__________________________________________________________________________________________________
+conv1/conv (Conv2D)             (None, 112, 112, 64) 9408        zero_padding2d_1[0][0]           
 __________________________________________________________________________________________________
 conv1/bn (BatchNormalization)   (None, 112, 112, 64) 256         conv1/conv[0][0]                 
 __________________________________________________________________________________________________
 conv1/relu (Activation)         (None, 112, 112, 64) 0           conv1/bn[0][0]                   
 __________________________________________________________________________________________________
-zero_padding2d_4 (ZeroPadding2D (None, 114, 114, 64) 0           conv1/relu[0][0]                 
-__________________________________________________________________________________________________
-pool1 (MaxPooling2D)            (None, 56, 56, 64)   0           zero_padding2d_4[0][0]           
+zero_padding2d_2 (ZeroPadding2D (None, 114, 114, 64) 0           conv1/relu[0][0]                 
+__________________________________________________________________________________________________
+pool1 (MaxPooling2D)            (None, 56, 56, 64)   0           zero_padding2d_2[0][0]           
 __________________________________________________________________________________________________
 conv2_block1_0_bn (BatchNormali (None, 56, 56, 64)   256         pool1[0][0]                      
 __________________________________________________________________________________________________
@@ -913,8 +913,12 @@
 bn (BatchNormalization)         (None, 7, 7, 1024)   4096        conv5_block16_concat[0][0]       
 __________________________________________________________________________________________________
 relu (Activation)               (None, 7, 7, 1024)   0           bn[0][0]                         
+__________________________________________________________________________________________________
+avg_pool (GlobalAveragePooling2 (None, 1024)         0           relu[0][0]                       
+__________________________________________________________________________________________________
+fc1000 (Dense)                  (None, 1000)         1025000     avg_pool[0][0]                   
 ==================================================================================================
-Total params: 7,037,504
-Trainable params: 6,953,856
+Total params: 8,062,504
+Trainable params: 7,978,856
 Non-trainable params: 83,648
 __________________________________________________________________________________________________
\ No newline at end of file
